…
      "WARNING:tensorflow:From C:\\Users\\nagarc1\\AppData\\Local\\Continuum\\anaconda3\\lib\\site-packages\\keras\\backend\\tensorflow_backend.py:3445: calling dropout (from tensorflow.python.ops.nn_ops) with keep_prob is deprecated and will be removed in a future version.\n",
      "Instructions for updating:\n",
      "Please use `rate` instead of `keep_prob`. Rate should be set to `rate = 1 - keep_prob`.\n",
      "_________________________________________________________________\n",
      "Layer (type)                 Output Shape              Param #   \n",
      "=================================================================\n",
      "embedding_1 (Embedding)      (None, 32, 100)           16700     \n",
      "_________________________________________________________________\n",
      "conv1d_1 (Conv1D)            (None, 32, 64)            19264     \n",
      "_________________________________________________________________\n",
      "dropout_1 (Dropout)          (None, 32, 64)            0         \n",
      "_________________________________________________________________\n",
      "max_pooling1d_1 (MaxPooling1 (None, 16, 64)            0         \n",
      "_________________________________________________________________\n",
      "conv1d_2 (Conv1D)            (None, 16, 128)           24704     \n",
      "_________________________________________________________________\n",
      "dropout_2 (Dropout)          (None, 16, 128)           0         \n",
      "_________________________________________________________________\n",
      "max_pooling1d_2 (MaxPooling1 (None, 8, 128)            0         \n",
      "_________________________________________________________________\n",
      "conv1d_3 (Conv1D)            (None, 8, 256)            98560     \n",
      "_________________________________________________________________\n",
      "dropout_3 (Dropout)          (None, 8, 256)            0         \n",
      "_________________________________________________________________\n",
      "max_pooling1d_3 (MaxPooling1 (None, 4, 256)            0         \n",
      "_________________________________________________________________\n",
      "global_max_pooling1d_1 (Glob (None, 256)               0         \n",
      "_________________________________________________________________\n",
      "dense_1 (Dense)              (None, 256)               65792     \n",
      "_________________________________________________________________\n",
      "dense_2 (Dense)              (None, 167)               42919     \n",
      "=================================================================\n",
      "Total params: 267,939\n",
      "Trainable params: 267,939\n",
      "Non-trainable params: 0\n",
      "_________________________________________________________________\n"
     ]
    }
   ],
   "source": [
    "from keras.layers import * \n",
    "from keras.models import *\n",
    "from keras.callbacks import *\n",
…
